Notebooks/autoencoder.pt (torch, 199477 bytes, 15 tensors)

encoder.conv1.weight f4 [8, 1, 3, 3]
-0.037279874 -0.1741454 0.3600073 -0.13025978 -0.1926646 0.18535888 0.20747155 0.3693644
0.3000205 0.10945561 -0.12586442 -0.14200364 0.29643866 0.27705568 0.014792622 0.40372887
-0.21101664 0.10930279 0.108602025 0.28469497 -0.22476046 -0.08961098 0.03962976 0.13804628
0.1854624 0.068514414 0.1262527 0.08040171 -0.3460716 -0.22971226 -0.40051803 -0.21673167
-0.010024641 -0.20369773 -0.3221518 0.07915379 0.19657362 -0.23672119 -0.16203165 -0.105049364
0.06490313 0.054867532 -0.070580706 0.18702115 -0.1412831 0.23563573 0.30444598 0.2766022
-0.20431635 -0.15550229 -0.1973803 -0.23755892 -0.29742 0.055841625 0.16039327 0.24094003
0.40200242 0.019105094 -0.027049799 0.370373 -0.012333807 -0.060755488 0.38226897 -0.11836414
-0.07182776 -0.17395625 0.2280034 0.36782598 0.4866022 -0.2509943 0.22484478 0.378086
00000000: c8b2 18bd 2c53 32be e052 b83e d262 05be
00000010: de49 45be b8ce 3d3e 6c73 543e 551d bd3e
00000020: 499c 993e 432a e03d 9ae2 00be 6769 11be
00000030: cfc6 973e 3eda 8d3e c15c 723c 8db5 ce3e
00000040: bf14 58be 24da df3d bd6a de3d 8ac3 913e
00000050: 9b27 66be f685 b7bd d152 223d 015c 0d3e
00000060: dbe9 3d3e 4951 8c3d 6348 013e a7a9 a43d
00000070: 4c30 b1be b139 6bbe b310 cdbe e8ee 5dbe
00000080: 643e 24bc 2396 50be 15f1 a4be 621b a23d
00000090: 984a 493e 0a67 72be a0eb 25be 1f24 d7bd
000000a0: efeb 843d c7bc 603d 9e8c 90bd 7982 3f3e
000000b0: 84ac 10be 7e4a 713e 58e0 9b3e ce9e 8d3e
000000c0: 4e38 51be fe3b 1fbe 101e 4abe a542 73be
000000d0: 6f47 98be 30ba 643d 223e 243e fcb8 763e
000000e0: 43d3 cd3e 4982 9c3c 8a97 ddbc 88a1 bd3e
000000f0: bc13 4abc bfda 78bd c2b8 c33e e668 f2bd
00000100: 6f1a 93bd 9621 32be b979 693e b053 bc3e
00000110: ec23 f93e 5382 80be b63d 663e 7d94 c13e

encoder.conv1.bias f4 [8]
-0.10828218 0.18097535 -0.20600744 0.23211502 0.32910964 0.3630587 0.17478733 0.0030687675
00000000: 0cc3 ddbd 9a51 393e 9df3 52be 8faf 6d3e
00000010: 0f81 a83e d4e2 b93e 73fb 323e 601d 493b

encoder.conv2.weight f4 [16, 8, 3, 3]
0.09283896 0.03379584 0.059902843 -0.0051512322 -0.10576766 -0.22043395 -0.07996946 -0.06885582
-0.17467672 0.13202259 0.008421821 0.20190449 -0.011732772 0.14094694 0.06491861 0.07365921
0.051240504 0.0009269233 0.019618262 -0.058953363 -0.06928362 -0.15492259 -0.027846849 -0.024665454
-0.16453114 -0.11972913 -0.05202085 0.19523604 0.049554013 0.05264638 0.06093456 0.047252942
-0.051552027 0.17417945 0.14349827 0.22076683 0.2182827 0.10460239 0.06390213 0.09896871
0.035580475 0.0021292714 0.10902274 0.107834205 0.1370571 -0.043821536 -0.0647885 -0.1529565
0.11587198 0.026357953 0.1633231 0.13238989 0.09262836 0.17843911 0.022642003 -0.087894045
0.09932061 -0.064993985 -0.031588264 -0.068712145 0.091446504 -0.054720316 -0.061717052 0.15126924
0.02072131 0.078672625 0.12735714 0.021014279 -0.09762754 0.024931386 0.016100124 -0.12827614
-0.046267983 0.0608407 -0.0035144752 0.08522519 0.054999046 0.10536282 -0.057878107 0.10841676
-0.070685595 0.03495999 0.12614541 -0.018202143 0.06321379 0.033787806 0.1018532 -0.042729758
0.10273564 0.01767809 -0.05071163 0.083965324 -0.068833455 -0.09417653 -0.016176311 0.042919453
0.06904114 0.13259763 0.1371467 0.18676795 0.19402835 0.20183308 0.16450574 0.1764548
0.08606024 0.062179554 0.027939625 0.011146839 0.17986712 0.19643822 0.14793278 0.20015173
0.29386026 0.27608734 0.06397234 0.074297145 0.079485364 -0.04689648 0.021734277 -0.11248806
0.082421355 0.13211034 -0.0079860855 0.24575318 0.1500024 0.22392145 -0.074153915 -0.02179265
-0.0620945 0.01830636 0.09640196 0.13223709 0.101016715 0.17367014 0.00513802 0.12492913
-0.038529478 -0.003418258 0.071953565 0.09370912 0.1510481 0.012292364 0.10781164 -0.105926365
0.0441741 0.118294194 -0.105578475 0.19308965 0.10013838 0.101772495 0.14819458 0.0025999302
0.00034729793 0.11016959 -0.0028400486 0.10616361 -0.09880217 0.07647256 0.14276724 0.09041901
-0.08509096 0.10017882 0.17126727 0.08438021 0.01673888 0.16460344 0.17596184 0.05469813
-0.034825917 0.1070066 0.1176459 -0.051160187 -0.25274885 -0.06548615 -0.021387445 -0.11806421
-0.035277683 0.05951635 -0.10742681 0.078398354 -0.024192734 -0.058946878 0.062449414 -0.08880665
0.01998994 0.051750667 0.068606846 -0.086093396 -0.022705438 -0.043966092 -0.1032111 0.077838175
0.06802251 0.12630096 0.06788772 -0.07978739 -0.017057963 -0.16571808 0.033747457 0.15262595
0.11833753 0.08308967 0.09216457 -0.07214656 0.10343411 0.11448177 0.03452785 0.1436349
0.0024734384 -0.06261688 0.09296487 0.026917713 0.054208912 0.19271742 0.08890043 0.19832644
0.18200451 0.20402628 0.10043467 0.13697171 -0.041716184 -0.0755625 0.16162924 -0.15851614
-0.21561667 0.184603 0.17023928 0.12848388 0.1132294 -0.053687222 0.2570731 0.009343593
-0.005795808 0.14397597 0.19949946 0.10446061 0.1623954 0.18951674 -0.01962682 0.16709362
-0.030822275 0.17144011 0.13864814 0.020991758 -0.20250477 -0.23013432 -0.08026806 -0.35037556
0.002948342 0.05780095 -0.037093036 0.0898899 -0.08507303 0.20917194 -0.11577026 -0.12672953
00000000: 5a22 be3d 826d 0a3d af5c 753d abcb a8bb
00000010: b79c d8bd 70b9 61be 07c7 a3bd 4804 8dbd
00000020: 74de 32be ee30 073e adfb 093c 0dc0 4e3e
00000030: d03a 40bc 6554 103e 0cf4 843d a4da 963d
00000040: 90e1 513d c5fc 723a 7ab6 a03c 1579 71bd
00000050: 92e4 8dbd 07a4 1ebe 131f e4bc 350f cabc
00000060: da7a 28be 8c34 f5bd d113 55bd f5eb 473e
00000070: 26f9 4a3d bba3 573d 8496 793d 4d8c 413d
00000080: 3828 53bd 195c 323e 36f1 123e b310 623e
00000090: 8085 5f3e c739 d63d 1fdf 823d 1bb0 ca3d
000000a0: d5bc 113d 3f8b 0b3b 5047 df3d 2ed8 dc3d
000000b0: b258 0c3e 367e 33bd d5af 84bd a1a0 1cbe
000000c0: 4a4e ed3d a2ec d73c 2c3e 273e 3791 073e
000000d0: f0b3 bd3d beb8 363e b97b b93c cb01 b4bd
000000e0: 9b68 cb3d 911b 85bd b262 01bd f4b8 8cbd
000000f0: 4e48 bb3d 6922 60bd 05cb 7cbd 53e6 1a3e
00000100: bdbf a93c 1d1f a13d e969 023e 2326 ac3c
00000110: f3f0 c7bd e83c cc3c 68e4 833c d25a 03be
00000120: 7f83 3dbd 1934 793d 1c53 66bb 8b8a ae3d
00000130: ae46 613d 76c8 d73d 9811 6dbd 9b09 de3d
00000140: 9cc3 90bd 3532 0f3d 432c 013e a91c 95bc
00000150: 3b76 813d 1565 0a3d 6998 d03d 6605 2fbd
00000160: 1067 d23d a4d1 903c 00b7 4fbd 03f6 ab3d
00000170: 8ef8 8cbd a0df c0bd 2f84 84bc 4fcc 2f3d
00000180: 7165 8d3d acc7 073e 2f70 0c3e 1940 3f3e
00000190: 5eaf 463e 55ad 4e3e 3174 283e 91b0 343e
000001a0: 5a40 b03d fdaf 7e3d a4e1 e43c 3ba1 363c
000001b0: 162f 383e 1a27 493e b17b 173e 93f4 4c3e
000001c0: da74 963e 525b 8d3e ee03 833d 1a29 983d
000001d0: 39c9 a23d 8616 40bd 150c b23c 2460 e6bd
000001e0: 87cc a83d ef47 073e 12d8 02bc b9a6 7b3e
000001f0: 3b9a 193e aa4b 653e 02de 97bd 8086 b2bc
00000200: cd56 7ebd 38f7 953c 646e c53d 2969 073e
00000210: dae1 ce3d 96d6 313e d65c a83b d8da ff3d
00000220: 16d1 1dbd da04 60bb 645c 933d 91ea bf3d
00000230: 5aac 1a3e e965 493c 59cc dc3d ecef d8bd
00000240: e7ef 343d 3a44 f23d 8739 d8bd 4bb9 453e
00000250: 5a15 cd3d 196e d03d 52c0 173e 9763 2a3b
00000260: 8a15 b639 98a0 e13d 1c20 3abb 4f6c d93d
00000270: cb58 cabd a59d 9c3d 9331 123e 9a2d b93d
00000280: 2b44 aebd 8e2a cd3d b060 2f3e 88cf ac3d
00000290: fa1f 893c ce8d 283e 572f 343e 250b 603d
000002a0: 9fa5 0ebd 4726 db3d 55f0 f03d 588d 51bd
000002b0: 4c68 81be 9a1d 86bd b934 afbc a6cb f1bd
000002c0: 557f 10bd 6bc7 733d 9602 dcbd 518f a03d
000002d0: d72f c6bc 4872 71bd f5ca 7f3d 43e0 b5bd
000002e0: f1c1 a33c 82f8 533d bf81 8c3d bc51 b0bd
000002f0: c100 babc ca15 34bd 5760 d3bd 9f69 9f3d
00000300: 634f 8b3d 0a55 013e b808 8b3d 9267 a3bd
00000310: 24bd 8bbc 00b2 29be c63a 0a3d fa49 1c3e
00000320: f25a f23d eb2a aa3d c7c0 bc3d 93c1 93bd
00000330: 43d5 d33d 6b75 ea3d 136d 0d3d 0715 133e
00000340: 6919 223b 473d 80bd 5e64 be3d 8982 dc3c
00000350: 2a0a 5e3d b757 453e 6e11 b63d 1616 4b3e
00000360: 645f 3a3e 44ec 503e b1b0 cd3d 5042 0c3e
00000370: 97de 2abd 83c0 9abd 2382 253e 0e52 22be
00000380: 9eca 5cbe 9208 3d3e 3553 2e3e 4791 033e
00000390: d1e4 e73d 22e7 5bbd 169f 833e df15 193c
000003a0: c3ea bdbb 706e 133e 9649 4c3e 72ef d53d
000003b0: fb4a 263e ad10 423e 6dc8 a0bc 971a 2b3e
000003c0: ff7e fcbc ff8d 2f3e c7f9 0d3e e8f6 ab3c
000003d0: 695d 4fbe 55a8 6bbe 9563 a4bd 6d64 b3be
000003e0: f838 413b b0c0 6c3d deee 17bd 3218 b83d
000003f0: c53a aebd 2b31 563e f518 edbd 63c5 01be

encoder.conv2.bias f4 [16]
0.19114098 0.09732362 -0.013938954 -0.0016372186 0.15445183 0.12920503 0.1786076 0.1172574
0.14612335 0.10097347 -0.09009593 0.034113076 0.17752035 0.15104622 -0.024342759 -0.01200571
00000000: 76ba 433e 9b51 c73d 3660 64bc f197 d6ba
00000010: 9f28 1e3e 534e 043e e9e4 363e a624 f03d
00000020: 5ca1 153e 2ecb ce3d 3784 b8bd 27ba 0b3d
00000030: e5c7 353e dcab 1a3e 776a c7bc 99b3 44bc

encoder.conv3.weight f4 [32, 16, 3, 3]
-0.007488133 -0.110593006 -0.01885235 -0.0803236 0.07184228 0.13813429 0.02041677 -0.07235588
0.045334157 0.08458311 -0.037189856 -0.0055863964 0.0034294454 0.04118335 0.09432378 0.0922003
-0.034072746 0.02519093 -0.037521105 0.06163377 0.02691925 0.07316786 0.0056052604 0.046402402
0.12133475 0.12228836 0.09349634 0.05816243 0.08041795 -0.03319237 0.06365963 0.13480619
0.24023224 0.08693531 0.19456543 0.055101294 0.00080772344 -0.10808672 -0.02250198 -0.07553977
0.12660481 0.05648142 -0.0776777 -0.076689325 -0.08755636 -0.030249147 -0.07847811 0.06611213
-0.07651819 0.08489858 -0.002932821 0.089926176 0.13961199 0.097266264 0.06791426 0.004204855
-0.001490181 -0.070764765 0.0029157735 -0.04027031 -0.09105475 -0.0806404 -0.0106868 0.02814583
0.012955902 0.114217475 0.068993926 0.05501935 -0.00070981117 0.054992277 -0.0072891824 0.10119756
0.051800124 -0.07831668 -0.14222383 -0.053202607 -0.0801247 0.017528195 -0.033364918 -0.1000553
-0.04657259 -0.010000857 0.08435976 -0.11333496 -0.051199168 -0.034798104 -0.059213646 -0.020795422
-0.08902935 -0.021781236 -0.07684719 -0.031753894 0.10861097 0.009542987 -0.012611363 0.106470734
0.049645975 -0.044893768 0.10194733 -0.0021097795 0.04910174 -0.036399636 0.043272257 0.033623062
0.1006894 0.076003514 0.07166681 0.036523163 0.054651476 0.036335714 0.007423136 0.01231382
0.06683504 -0.047955953 -0.111212574 -0.14379895 0.0009282889 -0.08231179 0.046097267 0.08170154
-0.049236618 0.0044847755 0.13515733 0.010900441 0.038343463 0.23783278 0.018380957 0.07028592
0.05248283 0.019521892 0.1457857 0.10020716 0.059463903 0.07182878 0.01702115 0.01180246
0.053110525 0.123044685 0.12937556 0.2680839 0.11249621 0.16254817 0.17878814 -0.07019478
-0.027598727 -0.1620713 -0.15751109 -0.088950306 -0.2262291 -0.18457104 -0.19680545 -0.13270856
-0.17276034 -0.20151377 -0.11533116 -0.12161439 -0.10903369 -0.04973343 -0.06245314 -0.1454352
-0.014811797 -0.06434224 0.070739776 -0.06834895 0.07346427 -0.06339631 -0.013219451 -0.036171574
0.01269459 0.049402364 0.126655 -0.0761924 -0.0033189324 -0.009543695 -0.12783377 -0.0454382
-0.00541145 -0.11005413 -0.031996224 0.12429653 -0.03869792 -0.13390942 -0.024250373 -0.17943059
-0.09189734 -0.13039494 -0.09827473 -0.06637852 -0.10620757 0.0001559995 -0.061386116 0.034980316
-0.13865717 -0.073218875 0.075765796 -0.010106568 -0.021708537 -0.03377805 0.085775845 -0.01634275
-0.1556218 -0.021835387 0.030697 -0.028237604 -0.015087506 -0.14928521 -0.15104914 -0.036818583
-0.04274874 0.073309965 -0.06725174 -0.0008803625 0.009490781 -0.11476766 0.011702328 -0.05136563
-0.024937002 0.071106926 -0.11301735 0.064067 -0.011801724 -0.15840688 -0.16634643 -0.12369524
-0.1948329 -0.18054727 -0.19697572 -0.07939024 -0.036274914 -0.1474081 -0.0051001827 -0.13427837
-0.08215516 -0.035559587 0.04157196 -0.123104885 0.047107406 -0.12577158 -0.07234755 -0.02401389
-0.118761964 -0.01724215 0.0030800952 0.016841216 -0.002749532 -0.018897645 -0.025012864 -0.11021809
0.07846549 -0.031109594 0.039678935 0.060539916 -0.13519876 0.052233055 0.022220789 0.019462653
00000000: 035f f5bb 967e e2bd 3e70 9abc b380 a4bd
00000010: 0c22 933d 1373 0d3e 1241 a73c 522f 94bd
00000020: 4fb0 393d e939 ad3d 6454 18bd 170e b7bb
00000030: 8cc0 603b dfaf 283d d32c c13d 83d3 bc3d
00000040: dd8f 0bbd 365d ce3c bbaf 19bd b173 7c3d
00000050: c285 dc3c 08d9 953d 55ac b73b 7210 3e3d
00000060: 5a7e f83d 5272 fa3d 027b bf3d ba3b 6e3d
00000070: 2bb2 a43d b9f4 07bd fb5f 823d a20a 0a3e
00000080: 71ff 753e 240b b23d 293c 473e e5b1 613d
00000090: 67bd 533a 925c ddbd 1356 b8bc 98b4 9abd
000000a0: b1a4 013e 1059 673d 7c15 9fbd 4b0f 9dbd
000000b0: c050 b3bd 0fcd f7bc 22b9 a0bd cc65 873d
000000c0: 92b5 9cbd 4fdf ad3d 9234 40bb 372b b83d
000000d0: 72f6 0e3e 8933 c73d a216 8b3d e1c8 893b
000000e0: 2d52 c3ba 1eed 90bd 9016 3f3b 7bf2 24bd
000000f0: ea7a babd cb26 a5bd b017 2fbc 1592 e63c
00000100: fe44 543c daea e93d b04c 8d3d f85b 613d
00000110: 9f12 3aba 953f 613d 18da eebb ab40 cf3d
00000120: 5e2c 543d 7f64 a0bd 20a3 11be faea 59bd
00000130: 6b18 a4bd 4a97 8f3c a7a9 08bd cbe9 ccbd
00000140: e6c2 3ebd a2da 23bc cfc4 ac3d 291c e8bd
00000150: 38b6 51bd 7588 0ebd 028a 72bd 295b aabc
00000160: 0555 b6bd 906e b2bc 0f62 9dbd 5f10 02bd
00000170: 6e6f de3d 305a 1c3c e49f 4ebc 540d da3d
00000180: 9459 4b3d 87e2 37bd c3c9 d03d 3a44 0abb
00000190: e81e 493d c917 15bd 403e 313d 56b8 093d
000001a0: 3f36 ce3d bba7 9b3d 0cc6 923d 5099 153d
000001b0: 3ada 5f3d c2d4 143d c73d f33b e8bf 493c
000001c0: cfe0 883d 766d 44bd 6bc3 e3bd 0840 13be
000001d0: 6a58 733a 1593 a8bd 7dd0 3c3d 2353 a73d
000001e0: 56ac 49bd 06f5 923b af66 0a3e c397 323c
000001f0: 090e 1d3d 708a 733e a993 963c 10f2 8f3d
00000200: 3cf8 563d 60ec 9f3c d948 153e 6939 cd3d
00000210: 6c90 733d f81a 933d f06f 8b3c 1b5f 413c
00000220: 6c8a 593d dafe fb3d 077b 043e 4b42 893e
00000230: 6a64 e63d 0773 263e 3d14 373e 48c2 8fbd
00000240: ba16 e2bc 05f6 25be 964a 21be 942b b6bd
00000250: 9aa8 67be 3100 3dbe 5e87 49be c1e4 07be
00000260: 16e8 30be a059 4ebe be32 ecbd f710 f9bd
00000270: 0e4d dfbd 48b5 4bbd ddce 7fbd f7ec 14be
00000280: 2ead 72bc ddc5 83bd 04e0 903d 89fa 8bbd
00000290: 6f74 963d edd5 81bd 6596 58bc a528 14bd
000002a0: f8fc 4f3c 225a 4a3d d9b1 013e c30a 9cbd
000002b0: 7282 59bb 285d 1cbc dbe6 02be 681d 3abd
000002c0: 8852 b1bb 0f64 e1bd 790e 03bd 2e8f fe3d
000002d0: b681 1ebd 8d1f 09be b8a8 c6bc a7bc 37be
000002e0: ac34 bcbd 4086 05be 4344 c9bd 76f1 87bd
000002f0: 5b83 d9bd cc93 2339 0270 7bbd 8547 0f3d
00000300: 25fc 0dbe c7f3 95bd 192b 9b3d 0596 25bc
00000310: 1ad6 b1bc da5a 0abd 3fab af3d 3be1 85bc
00000320: 525b 1fbe 20e0 b2bc 4678 fb3c 8c52 e7bc
00000330: 9631 77bc 39de 18be a0ac 1abe 15cf 16bd
00000340: 4e19 2fbd 8923 963d 48bb 89bd 21c8 66ba
00000350: 397f 1b3c 4f0b ebbd 1fbb 3f3c c464 52bd
00000360: af48 ccbc 82a0 913d a475 e7bd 8f35 833d
00000370: 055c 41bc 6a35 22be b856 2abe ee53 fdbd
00000380: 4782 47be 62e1 38be 01b4 49be 5a97 a2bd
00000390: 0195 14bd 26f2 16be 6f1f a7bb 4580 09be
000003a0: f740 a8bd eea6 11bd 5c47 2a3d 6a1e fcbd
000003b0: b2f3 403d 44ca 00be f42a 94bd c7b8 c4bc
000003c0: 7939 f3bd 693f 8dbc 6cdb 493b 97f6 893c
000003d0: 7e31 34bb 3ccf 9abc c7e7 ccbc 06ba e1bd
000003e0: 84b2 a03d 8cd9 febc 6186 223d b4f8 773d
000003f0: 8b71 0abe 54f2 553d 5f08 b63c 2470 9f3c

encoder.conv3.bias f4 [32]
0.07357918 -0.1054362 -0.028399276 0.05775703 -0.05122186 -0.012508343 0.018098433 0.011222958
-0.06606083 0.09424167 0.0880208 0.07110403 -0.06505383 0.10660333 0.057390176 0.0023900515
0.06311721 -0.117533766 0.06233352 -0.12465057 0.11725622 -0.04524391 -0.019883212 0.025539383
0.08564063 -0.121943295 0.032463774 0.062600836 0.014333618 0.029819103 0.10786819 0.09759504
00000000: aeb0 963d efee d7bd 99a5 e8bc a392 6c3d
00000010: 03ce 51bd cbef 4cbc 2a43 943c 7fe0 373c
00000020: e74a 87bd c701 c13d 4044 b43d fd9e 913d
00000030: f13a 85bd d952 da3d f611 6b3d 69a2 1c3b
00000040: 9943 813d 8bb5 f0bd 6f51 7f3d cc48 ffbd
00000050: 0724 f03d ae51 39bd 1ee2 a2bc f837 d13c
00000060: 5b64 af3d 68bd f9bd bcf8 043d de34 803d
00000070: 8dd7 6a3c 3147 f43c ffe9 dc3d e9df c73d

encoder.conv4.weight f4 [64, 32, 3, 3]
-0.026090194 0.004047169 0.02035448 -0.05139276 0.032511275 -0.017936558 -0.017659236 0.056725368
0.061972972 -0.09062628 -0.017074706 -0.12597099 -0.02352578 -0.030954564 -0.032789353 -0.020493114
-0.0951905 -0.11742659 0.10271119 0.05801785 0.14870289 0.122036606 0.04694972 0.12769136
0.12150203 0.08271369 0.12597688 0.109718084 0.057658337 0.03843825 0.14116448 0.096884094
-0.013734172 0.15235408 0.09001513 0.0695956 -0.08888008 -0.0226965 -0.025144178 -0.037847623
-0.012890364 -0.10813573 -0.042602733 -0.09614378 -0.01762082 0.015453946 0.014555894 0.03731184
0.03169015 0.032419022 0.008734383 0.03478894 0.043592773 0.051570952 0.02595074 -0.026951196
0.0468796 0.038985617 -0.03543799 0.05338964 0.013481406 -0.04228526 0.027759533 0.031743795
-0.053410646 0.0047255047 -0.02756916 0.042450476 -0.019887954 0.022907581 0.060608596 -0.027196521
-0.04253545 -0.013307998 -0.014199799 0.020402804 0.021769546 -0.038145173 -0.046430632 0.048859973
-0.07072937 0.03052831 -0.03802099 -0.014436317 0.020152025 -0.012548441 0.01241738 0.038376536
-0.028374445 -0.050949287 0.058526166 0.12679648 0.13840242 0.040777203 0.07441098 0.053645883
0.081886575 -0.0018087408 0.100001134 -0.019435233 -0.033435162 -0.036566757 0.05323872 0.042532917
0.044376004 -0.026766531 -0.023505839 0.067162015 -0.074035734 -0.030110326 -0.09267136 -0.065311156
-0.08378555 -0.046011284 -0.04225583 -0.10181646 -0.14111894 0.06549186 0.07355063 0.15348804
0.076372944 0.103092596 0.092174165 0.047268447 0.11391531 0.066049814 0.0483501 0.021816043
-0.03817426 -0.065416664 0.015762791 -0.023016129 -0.058436006 -0.019288952 0.01776545 0.15069312
0.16353823 0.16326147 0.08724035 0.080157995 0.118853 0.05390691 0.048384856 0.057606883
0.015698489 0.020978326 0.08218503 0.058604088 0.06258677 0.066873305 0.05906047 0.034922972
0.11482288 -0.085753426 -0.06984021 -0.10889858 -0.05642889 -0.060440656 -0.02261453 -0.067940466
-0.0027004965 -0.06686408 -0.023199977 0.059802383 0.014348628 -0.06330177 0.07364542 0.067562
0.047551222 0.012688465 0.108259395 -0.06785567 -0.08745374 -0.043177802 -0.07867156 -0.03428249
-0.026259962 -0.040412255 -0.037262917 -0.016735582 0.117637746 0.06658451 0.053361192 0.05789401
0.08777406 0.059480406 0.03160596 0.07657745 0.071094655 0.025534002 0.0022572477 0.025670692
0.0025473812 0.0071376124 -0.036588598 0.01028244 0.04659071 0.052541986 0.043048877 0.07539699
0.022222092 0.11650044 0.07078436 0.053955898 0.020477057 0.09150996 0.107316926 -0.023035776
-0.13244806 -0.08557333 -0.04134429 -0.07558445 -0.075598784 -0.054352943 -0.085642755 -0.0984054
0.0352656 0.068281 0.11926007 0.061595116 0.06413064 0.071852244 0.111167245 0.035626497
0.0703373 -0.0013920568 -0.028792841 -0.060200147 -0.019240275 -0.10069688 -0.044177547 0.010616529
-0.07806591 -0.021305015 0.021855569 0.007271088 -0.0059551476 0.052784316 -0.027418323 0.0040712287
-0.040922362 0.0050619603 0.0041822116 -0.014573153 -0.025471024 0.04357617 -0.013901625 -0.03154851
-0.0011801672 -0.03364462 0.033028167 0.026060702 -0.011522828 0.021664284 -0.015703497 -0.024968391
00000000: 1abb d5bc 1d9e 843b 70be a63c 3781 52bd
00000010: 8b2a 053d b0ef 92bc 1aaa 90bc dc58 683d
00000020: 5fd7 7d3d 459a b9bd 41e0 8bbc 8afe 00be
00000030: 23b9 c0bc 6d94 fdbc 214e 06bd 2de1 a7bc
00000040: 3df3 c2bd 5a7d f0bd 3f5a d23d 20a4 6d3d
00000050: 9245 183e 54ee f93d 594e 403d 86c1 023e
00000060: 0ed6 f83d cc65 a93d 1500 013e e0b3 e03d
00000070: 262b 6c3d 6d71 1d3d 6c8d 103e 2b6b c63d
00000080: 4b05 61bc b502 1c3e da59 b83d 2388 8e3d
00000090: c206 b6bd 03ee b9bc 2afb cdbc 1c06 1bbd
000000a0: 1b32 53bc 4476 ddbd 3480 2ebd 08e7 c4bd
000000b0: 8a59 90bc 8c32 7d3c d87b 6e3c 4dd4 183d
000000c0: 88cd 013d cfc9 043d a81a 0f3c d97e 0e3d
000000d0: 568e 323d 103c 533d a596 d43c c1c8 dcbc
000000e0: d304 403d 62af 1f3d 6d27 11bd 18af 5a3d
000000f0: 1de1 5c3c 4f33 2dbd f667 e33c c805 023d
00000100: 1fc5 5abd 68d8 9a3b b8d8 e1bc 8de0 2d3d
00000110: 10ec a2bc aea8 bb3c b840 783d 3dcb debc
00000120: a739 2ebd ca09 5abc 46a6 68bc c823 a73c
00000130: 0c56 b23c 1d3e 1cbd 0c2e 3ebd 6521 483d
00000140: 8fda 90bd 8216 fa3c e6bb 1bbd 4d86 6cbc
00000150: dc15 a53c fa97 4dbc 4472 4b3c b730 1d3d
00000160: 8671 e8bc 33b0 50bd 22b9 6f3d f0d6 013e
00000170: 5db9 0d3e ff05 273d c964 983d c9bb 5b3d
00000180: 26b4 a73d 4513 edba 65cd cc3d a336 9fbc
00000190: 4ff3 08bd 06c7 15bd d810 5a3d ff36 2e3d
000001a0: 9dc3 353d 7c45 dbbc 518f c0bc 3d8c 893d
000001b0: 0ca0 97bd eea9 f6bc 7bca bdbd dbc1 85bd
000001c0: c297 abbd 5476 3cbd 7314 2dbd 2685 d0bd
000001d0: 7c81 10be 9920 863d b6a1 963d f82b 1d3e
000001e0: 6b69 9c3d 3622 d33d cfc5 bc3d 8f9c 413d
000001f0: 6e4c e93d 2045 873d c10a 463d 8fb7 b23c
00000200: 9d5c 1cbd 2cf9 85bd f820 813c 528c bcbc
00000210: 985a 6fbd dd03 9ebc d988 913c 4c4f 1a3e
00000220: 9176 273e 042e 273e 12ab b23d e029 a43d
00000230: 3469 f33d 7ecd 5c3d 332f 463d 32f5 6b3d
00000240: 1e9a 803c bdda ab3c a050 a83d d70a 703d
00000250: 7e2d 803d dff4 883d 64e9 713d 640b 0f3d
00000260: 4228 eb3d 7e9f afbd 6208 8fbd 3806 dfbd
00000270: fb21 67bd 9f90 77bd 1b42 b9bc 5f24 8bbd
00000280: d0fa 30bb 09f0 88bd e10d bebc 58f3 743d
00000290: 8216 6b3c 5ca4 81bd 69d3 963d f25d 8a3d
000002a0: 12c5 423d 48e3 4f3c 1ab7 dd3d eaf7 8abd
000002b0: f21a b3bd 35db 30bd 8e1e a1bd cc6b 0cbd
000002c0: 221f d7bc 5287 25bd 00a1 18bd 0f19 89bc
000002d0: 0fec f03d 765d 883d 4491 5a3d 4522 6d3d
000002e0: e3c2 b33d baa1 733d 4075 013d a3d4 9c3d
000002f0: 139a 913d af2c d13c 55ee 133b 584b d23c
00000300: f7f1 263b a2e2 e93b eddd 15bd ae77 283c
00000310: e6d5 3e3d 4436 573d 0554 303d bd69 9a3d
00000320: 1b0b b63c c897 ee3d 64f7 903d dc00 5d3d
00000330: 80bf a73c 9369 bb3d fac8 db3d 86b5 bcbc
00000340: 77a0 07be 1241 afbd a158 29bd 05cc 9abd
00000350: 89d3 9abd 31a1 5ebd 7865 afbd c588 c9bd
00000360: a972 103d e9d6 8b3d a03e f43d 294b 7c3d
00000370: ed56 833d 4527 933d a7ab e33d 17ed 113d
00000380: 010d 903d ad75 b6ba f7de ebbc 6e94 76bd
00000390: c89d 9dbc 2a3a cebd 84f3 34bd f3f0 2d3c
000003a0: 05e1 9fbd db87 aebc 730a b33c 4f42 ee3b
000003b0: 6623 c3bb 5e34 583d 649c e0bc f167 853b
000003c0: 359e 27bd cdde a53b ef0a 893b 3cc4 6ebc
000003d0: 9ca8 d0bc ed7c 323d a4c3 63bc 0339 01bd
000003e0: d7af 9aba f1ce 09bd 8b48 073d 417d d53c
000003f0: 3eca 3cbc 4c79 b13c 9fa4 80bc 838a ccbc

encoder.conv4.bias f4 [64]
0.07968452 -0.015768582 0.055335313 0.02183544 0.0722813 -0.017193751 -0.028196154 -0.0012286827
-0.0367104 0.011949371 0.021931618 0.061500665 0.027481684 0.048682433 0.003636975 -0.033799816
-0.07427337 0.041365057 -0.00918293 0.024993522 -0.063654505 -0.0040273825 0.02157812 0.06720003
-0.04518297 0.096601866 -0.05825586 0.07750022 0.07196904 0.02866028 0.044949677 -0.07749979
-0.033097465 0.060495187 -0.06768033 0.042950884 0.055120766 -0.089049526 0.06214142 -0.074584
0.008105779 -0.011958525 -0.015125667 -0.014683283 0.029910374 0.07218919 0.039749876 0.043357715
-0.060985655 -0.074398756 0.008955209 0.04710545 0.0005227535 -0.035000667 -0.047613673 0.049620025
-0.010609179 0.03561722 0.01033866 -0.012579225 -0.058561612 -0.017556692 -0.03900903 -0.057309475
00000000: a331 a33d 1d2d 81bc 48a7 623d 3de0 b23c
00000010: 3808 943d e9d9 8cbc 9ffb e6bc c00b a1ba
00000020: a55d 16bd 4bc7 433c f0a9 b33c 1fe8 7b3d
00000030: 4521 e13c 3b67 473d 515a 6e3b ad71 0abd
00000040: a31c 98bd 686e 293d 0074 16bc 37bf cc3c
00000050: 4b5d 82bd 22f8 83bb 99c4 b03c 2ba0 893d
00000060: c711 39bd 33d7 c53d b29d 6ebd 6fb8 9e3d
00000070: 8164 933d f7c8 ea3c 271d 383d 36b8 9ebd
00000080: 3591 07bd cdc9 773d fc9b 8abd 44ed 2f3d
00000090: 50c6 613d 995f b6bd 0088 7e3d 7fbf 98bd
000000a0: 1ace 043c b0ed 43bc a5d1 77bc 2792 70bc
000000b0: 9a06 f53c edd7 933d c4d0 223d dc97 313d
000000c0: 18cc 79bd 605e 98bd deb8 123c a5f1 403d
000000d0: 6509 093a dc5c 0fbd 8e06 43bd 5e3e 4b3d
000000e0: 1fd2 2dbc 5de3 113d 7c63 293c 1819 4ebc
000000f0: 4dde 6fbd 0dd3 8fbc efc7 1fbd 57bd 6abd

decoder.conv1.weight f4 [64, 32, 3, 3]
-0.010733261 -0.005923844 0.028397975 0.041953422 0.009657859 -0.0039550783 -0.048641846 0.0008279514
-0.01994562 0.008647647 -0.0053163846 0.08588934 0.0077183447 -0.005280734 0.056476153 0.04751677
-0.010936245 0.09548063 0.10615617 -0.021744877 -0.002037723 0.026301485 0.063037805 0.017921813
0.07742417 -0.048536576 0.0979661 0.041266724 0.035422895 0.022036577 -0.06346827 0.04039215
-0.03507725 -0.007030246 0.040621422 -0.00053003326 -0.05465815 0.01036932 0.11295966 -0.11188669
-0.09608667 0.017910942 -0.014582648 -0.11315768 0.10430558 0.061590135 -0.020076616 -0.027326616
-0.026629329 -0.023184013 -0.055049893 0.030423142 0.003106836 0.09746187 0.016759574 0.06252741
0.017697088 0.041920606 0.032091368 -0.05051611 0.027501525 0.037712432 0.019560767 0.2393517
-0.06264447 -0.15729865 0.050827302 -0.10955037 -0.049381576 0.2286585 -0.053593498 -0.10130399
-0.010519315 0.047640976 0.015260956 -0.027658006 -0.059631724 0.022860667 -0.07246346 0.0020090041
0.04672914 0.07615317 0.04338554 -0.010850379 -0.018747866 -0.051445168 -0.05301569 0.07778242
-0.04503896 0.029057566 0.09041945 0.061204705 0.05549672 -0.04472313 -0.058984693 -0.15538007
-0.071683705 -0.0137129165 0.0565846 0.002371686 -0.026942477 0.022333369 0.08031917 -0.04305529
0.052373387 0.081962295 -0.08874561 0.051375505 0.0213786 -0.027593095 -0.032940857 -0.07693775
0.0047454434 -0.097727746 0.089016214 0.049445838 0.024528716 0.08521222 -0.03821238 -0.025873268
-0.094748065 0.009671183 -0.030316198 0.012728641 -0.072309904 0.010731627 0.056395303 0.0342345
0.016992688 -0.007669449 -0.0087381285 -0.03754264 0.0018756138 -0.0070822295 -0.054662198 0.055976678
-0.021781882 0.11891264 -0.027207773 0.010291507 -0.0060912487 0.10826237 -0.02326486 -0.037498552
0.022805529 0.033979964 0.037431583 -0.040375967 0.047086556 0.046585042 0.04803472 0.091825694
0.053302154 0.04446975 -0.033826437 -0.04988723 -0.050436232 -0.040161643 0.00026251987 0.005564438
-0.01796532 -0.04697777 -0.015265902 0.048856996 0.17317659 0.05727767 0.054013178 0.05897637
0.093456455 0.064121835 -0.11858658 0.21156277 -0.120952755 0.023085099 -0.041672852 0.0167507
-0.1654576 0.019847596 -0.012907633 0.08955522 0.005607081 -0.034437004 0.06271758 -0.00095322
0.029899685 0.04172382 0.019225957 0.056015734 0.0549716 0.019085146 -0.025840828 -0.012321483
0.035145935 0.055223275 0.03394624 0.014802667 -0.01801212 -0.042257436 -0.0007633216 0.076495916
-0.003393049 0.020394985 0.024077166 0.06027008 -0.018817326 0.082652956 0.016584206 0.033277173
-0.005017845 0.025714967 -0.006323105 0.0049491758 0.06803719 -0.014450563 -0.01192998 0.038211197
0.001745152 0.043481413 0.04532128 0.009123001 -0.03543756 -0.06293596 0.10478095 0.04889151
0.096539356 0.00797926 0.028093485 0.030451316 0.06660652 -0.0004374386 0.031927314 -0.0029593862
0.09068279 0.10140321 -0.03361375 0.052508157 0.030286578 0.020809185 0.026587538 -0.018504148
-0.021236785 -0.015788391 0.08146637 0.019768972 -0.039835818 0.070995376 0.045172267 -0.03269646
-0.0020633389 0.031362634 0.02591883 0.06436789 0.033489663 -0.006148726 0.02260434 0.08261611
00000000: 8fda 2fbc ce1c c2bb dfa2 e83c 5ad7 2b3d
00000010: ff3b 1e3c 9a99 81bb ac3c 47bd e10a 593a
00000020: ff64 a3bc dcae 0d3c 1135 aebb c0e6 af3d
00000030: 2bea fc3b 020a adbb 8a53 673d f2a0 423d
00000040: f02d 33bc 598b c33d 6868 d93d 5022 b2bc
00000050: 528b 05bb 3676 d73c f719 813d c4d0 923c
00000060: 9090 9e3d 4ace 46bd 73a2 c83d 4c07 293d
00000070: 9917 113d 0d86 b43c a7fb 81bd 3d72 253d
00000080: 2aad 0fbd fa5d e6bb a662 263d eef1 0aba
00000090: 39e1 5fbd 15e4 293c 6557 e73d d924 e5bd
000000a0: 17c9 c4bd f8b9 923c 0fec 6ebc 37bf e7bd
000000b0: 2a9e d53d f045 7c3d b777 a4bc 11dc dfbc
000000c0: c025 dabc 66ec bdbc ff7b 61bd f439 f93c
000000d0: 0f9c 4b3b 179a c73d 604b 893c 5f0e 803d
000000e0: 7cf9 903c f1b4 2b3d 3d72 033d fbe9 4ebd
000000f0: e14a e13c 5a78 1a3d e73d a03c 9d18 753e
00000100: be4b 80bd e612 21be 4a30 503d f25b e0bd
00000110: 5644 4abd 7425 6a3e db84 5bbd 7778 cfbd
00000120: 3459 2cbc 2f23 433d 1709 7a3c 0b93 e2bc
00000130: 6540 74bd 4b46 bb3c b967 94bd 7fa9 033b
00000140: 0e67 3f3d 31f6 9b3d 09b5 313d cac5 31bc
00000150: 2095 99bc 2bb8 52bd fb26 59bd 644c 9f3d
00000160: c67a 38bd 220a ee3c d52d b93d c9b1 7a3d
00000170: 8750 633d 9a2f 37bd ef99 71bd f41b 1fbe
00000180: e8ce 92bd 24ac 60bc 41c5 673d 4a6e 1b3b
00000190: 78b6 dcbc 78f4 b63c 617e a43d be5a 30bd
000001a0: 7a85 563d d9db a73d 42c0 b5bd 1f6f 523d
000001b0: 2c22 af3c ea0a e2bc feec 06bd 8a91 9dbd
000001c0: aa7f 9b3b 7c25 c8bd 224e b63d b887 4a3d
000001d0: 72f0 c83c bf83 ae3d 9684 1cbd 2df4 d3bc
000001e0: 460b c2bd e273 1e3c ad59 f8bc ca8b 503c
000001f0: 3717 94bd b5d3 2f3c c3fe 663d 7a39 0c3d
00000200: 4034 8b3c 0050 fbbb 5e2a 0fbc 50c6 19bd
00000210: 28d7 f53a 0c12 e8bb 78e5 5fbd cd47 653d
00000220: eb6f b2bc 7888 f33d d6e2 debc b59d 283c
00000230: 1999 c7bb a9b8 dd3d f395 bebc 1598 19bd
00000240: a9d2 ba3c 932e 0b3d dc51 193d 4561 25bd
00000250: d5dd 403d f5cf 3e3d 0ec0 443d 1c0f bc3d
00000260: 5c53 5a3d ea25 363d 978d 0abd 8d56 4cbd
00000270: 3996 4ebd 8980 24bd d2a2 8939 e455 b63b
00000280: 022c 93bc c36b 40bd d51d 7abc 461e 483d
00000290: 3455 313e fd9b 6a3d ec3c 5d3d 3591 713d
000002a0: 1966 bf3d 4f52 833d 85dd f2bd e9a3 583e
000002b0: 14b6 f7bd f61c bd3c 27b1 2abd c438 893c
000002c0: b86d 29be 6d97 a23c 897a 53bc ba68 b73d
000002d0: 9bbb b73b d10d 0dbd 1372 803d 83e1 79ba
000002e0: 2ff0 f43c 99e6 2a3d c17f 9d3c c170 653d
000002f0: e729 613d 7458 9c3c 25b0 d3bc 0ce0 49bc
00000300: 2ff5 0f3d cd31 623d 360b 0b3d e386 723c
00000310: 278e 93bc 2216 2dbd a519 48ba e4a9 9c3d
00000320: ea5d 5ebb 6213 a73c 7a3d c53c c2dd 763d
00000330: cb26 9abc f445 a93d 9adb 873c a54d 083d
00000340: bc6c a4bb 32a8 d23c 0d32 cfbb b22c a23b
00000350: 1557 8b3d 0ec2 6cbc f675 43bc 5883 1c3d
00000360: 96bd e43a 9119 323d cea2 393d a478 153c
00000370: fa26 11bd 92e4 80bd 6597 d63d 7742 483d
00000380: 6db6 c53d 71bb 023c 4f24 e63c 0a75 f93c
00000390: 0069 883d 0458 e5b9 37c6 023d 43f2 41bb
000003a0: e6b7 b93d 7cac cf3d 92ae 09bd cb12 573d
000003b0: 8f1b f83c 0678 aa3c 1cce d93c 0396 97bc
000003c0: c4f8 adbc a856 81bc d7d7 a63d 8af2 a13c
000003d0: e22a 23bd 0666 913d 8e06 393d b9ec 05bd
000003e0: 1539 07bb 1b76 003d ba53 d43c 50d3 833d
000003f0: 752c 093d 417b c9bb bd2c b93c a332 a93d

decoder.conv1.bias f4 [32]
0.0004759853 0.09219052 0.0943331 -0.03517297 0.113907605 0.012885341 0.010843119 0.07977103
-0.062350273 0.103145644 -0.011826169 0.08890953 0.052140422 -0.0094472235 -0.0022746385 0.034459554
-0.026442317 -0.1115324 0.1104944 0.06478146 0.0053478833 -0.024538552 -0.00086299225 -0.039952707
0.09380195 0.02691143 -0.05699167 0.056728512 0.10331576 0.077548504 0.10622277 0.09721268
00000000: aa8d f939 62ce bc3d b631 c13d 8811 10bd
00000010: 6448 e93d 0a1d 533c 56a7 313c fe5e a33d
00000020: 0063 7fbd 063e d33d 8cc2 41bc 3316 b63d
00000030: 3291 553d 87c8 1abc 1a12 15bb 7625 0d3d
00000040: 8f9d d8bc 196b e4bd e34a e23d 24ac 843d
00000050: 4c3d af3b 1305 c9bc 6e3a 62ba 73a5 23bd
00000060: 3d1b c03d 5c75 dc3c 1970 69bd 285c 683d
00000070: 3797 d33d c0d1 9e3d 538b d93d 7117 c73d

decoder.conv2.weight f4 [32, 16, 3, 3]
-0.019012064 -0.07411354 -0.10371491 0.08099514 0.011739791 -0.032693993 0.032405157 -0.0030414767
-0.09404362 0.088909686 0.0426481 -0.023595273 -0.058426104 -0.040817652 -0.013953775 0.03257509
0.083240196 0.036304124 -0.10674737 0.01735037 -0.054181635 -0.10644939 -0.09850212 -0.0601868
-0.10917441 -0.0469479 0.00021740638 -0.0430896 -0.104951985 -0.093475044 -0.047162596 -0.12859185
-0.018544724 -0.1775851 -0.035921887 0.027911315 -0.0161664 -0.07684617 -0.12044179 -0.16221388
-0.059337866 -0.13319744 -0.09334796 -0.15736282 -0.06407538 -0.13154878 -0.08428564 0.042928528
-0.056046724 0.037212502 -0.038373873 -0.1605224 -0.026237208 -0.023897404 0.028044792 0.0014528407
-0.095096715 -0.10418836 -0.008650233 -0.108653076 0.0024617924 -0.03210457 -0.018976655 -0.044984315
0.026004944 0.015230744 0.019593226 0.09400641 0.06505807 -0.009063126 0.047772788 0.015194774
0.026119085 -0.012598683 -0.04272396 -0.017122844 -0.09600607 -0.15832476 0.109614044 0.10192371
0.07621287 -0.014404032 -0.036500394 0.077168874 0.05249145 0.08554711 0.08199132 -0.016084123
-0.08485035 0.050235726 -0.04531138 -0.020430364 -0.06549185 -0.058573466 -0.073134124 0.06943737
0.0032347152 0.03363717 0.03230706 -0.046543606 0.0076812156 0.031159792 0.08218432 -0.0475315
0.072217785 -0.011451916 0.0764269 0.045000166 -0.022634486 -0.050901085 -0.029644785 -0.012944839
-0.09502769 -0.059203733 -0.07425428 -0.021522459 0.008111932 -0.09894576 -0.12590337 -0.061285026
-0.14103013 -0.058631714 -0.07961609 -0.086192675 -0.15884344 -0.012279649 -0.09625142 0.02356898
0.011636945 0.005380274 -0.034824967 -0.08303192 -0.077888854 0.034171797 0.048062123 -0.07742978
-0.049574826 -0.027671048 -0.0686917 -0.064347096 -0.06291654 -0.08178843 -0.09878071 -0.11609292
-0.011768419 0.18284234 0.14332736 -0.038232014 0.016490765 0.10393308 -0.17770638 0.10481784
0.12566602 0.019303603 0.03701699 -0.0065403134 0.09347672 -0.037905984 0.022169633 0.0037541462
0.0074033756 -0.018228095 0.14064248 0.11583207 -0.07766368 0.04890662 0.08750542 0.026688004
0.049014207 -0.021004329 0.031045992 -0.051060118 0.0897518 0.09972379 0.08034919 0.0934875
0.09254587 -0.024670012 0.099624895 0.074955486 0.17684272 0.087539606 0.0050901175 0.05841995
-0.07847388 -0.08954731 0.1568221 0.056031603 0.055632375 0.15662521 0.092821226 -0.045066465
0.176816 0.1577228 0.05086904 0.06477578 -0.018692575 0.08621408 0.24249893 0.11346596
0.03483802 0.01679382 -0.033474904 0.045871682 -0.08068254 -0.1164837 -0.097334094 -0.04096288
-0.072213195 0.031778924 -0.0062095406 -0.13596386 -0.053195078 0.019074285 0.014332923 0.11918514
-0.07874131 0.09743042 -0.018304616 -0.110430956 -0.027436981 -0.018730445 0.1532811 -0.016502133
-0.011265869 0.03408902 -0.020064268 0.061095454 0.038037524 -0.19497699 -0.0014989562 0.008437688
-0.095172286 0.10557102 -0.071470805 -0.009382368 -0.04178085 0.012663571 0.02154043 -0.050843246
-0.041123267 0.08538087 -0.044653166 0.012929967 0.05682845 0.04151876 -0.02011409 0.059298176
0.080630355 -0.061368324 0.033225976 0.08095806 0.20234923 0.08727171 0.12827878 0.13796908
00000000: 30bf 9bbc d7c8 97bd 7c68 d4bd c8e0 a53d
00000010: 4158 403c 23ea 05bd 45bb 043d 8353 47bb
00000020: f199 c0bd 4816 b63d c6af 2e3d e04a c1bc
00000030: 3650 6fbd 6930 27bd 609e 64bc 756d 053d
00000040: d679 aa3d a2b3 143d 5d9e dabd 5d22 8e3c
00000050: 90ed 5dbd 2302 dabd 7bbb c9bd 6f86 76bd
00000060: d596 dfbd 714c 40bd 95f7 6339 b87e 30bd
00000070: 11f1 d6bd d86f bfbd 912d 41bd 95ad 03be
00000080: 1beb 97bc ded8 35be d422 13bd 45a6 e43c
00000090: 666f 84bc 8661 9dbd 2faa f6bd 651b 26be
000000a0: 430c 73bd e964 08be 372d bfbd b823 21be
000000b0: f439 83bd b9b4 06be f39d acbd d3d5 2f3d
000000c0: 4091 65bd 236c 183d ec2d 1dbd fc5f 24be
000000d0: 6aef d6bc 7dc4 c3bc 31be e53c 3f6d be3a
000000e0: 11c2 c2bd b560 d5bd b5b9 0dbc 8185 debd
000000f0: 0656 213b 1580 03bd ee74 9bbc 7941 38bd
00000100: 5208 d53c 5f8a 793c f981 a03c 6f86 c03d
00000110: 2a3d 853d 817d 14bc 66ad 433d 80f3 783c
00000120: b1f7 d53c b56a 4ebc 52ff 2ebd 3545 8cbc
00000130: d59e c4bd e31f 22be 547d e03d 61bd d03d
00000140: 7e15 9c3d e4fe 6bbc 7081 15bd b70a 9e3d
00000150: 4601 573d 5333 af3d 11eb a73d dac2 83bc
00000160: 05c6 adbd fac3 4d3d 6d98 39bd 945d a7bc
00000170: 9720 86bd bbea 6fbd 58c7 95bd 2e35 8e3d
00000180: 84fd 533b 21c7 093d 6854 043d 82a4 3ebd
00000190: b5b2 fb3b d242 ff3c 4150 a83d 64b0 42bd
000001a0: ebe6 933d d1a0 3bbc b585 9c3d 1852 383d
000001b0: f56b b9bc a87d 50bd 9fd9 f2bc 9716 54bc
000001c0: e19d c2bd 9d7f 72bd a112 98bd de4f b0bc
000001d0: e9e7 043c 13a4 cabd d0ec 00be 0206 7bbd
000001e0: 346a 10be cf27 70bd c30d a3bd c985 b0bd
000001f0: dba7 22be 9530 49bc 771f c5bd bc13 c13c
00000200: e3a8 3e3c 024d b03b a0a4 0ebd a40c aabd
00000210: 3184 9fbd baf7 0b3d cadc 443d 8193 9ebd
00000220: f90e 4bbd 65ae e2bc 3cae 8cbd 69c8 83bd
00000230: 63da 80bd b180 a7bd 8a4d cabd 20c2 edbd
00000240: 54d0 40bc 063b 3b3e 68c4 123e 2c99 1cbd
00000250: a417 873c deda d43d a9f8 35be bcaa d63d
00000260: 98ae 003e 9722 9e3c 219f 173d 2050 d6bb
00000270: b970 bf3d 4e43 1bbd 179d b53c 1f08 763b
00000280: 0498 f23b 1653 95bc 9504 103e 5d39 ed3d
00000290: 230e 9fbd 4f52 483d 0b36 b33d cda0 da3c
000002a0: 1fc3 483d 4511 acbc 2a54 fe3c 6a24 51bd
000002b0: cbcf b73d fd3b cc3d 1e8e a43d 6076 bf3d
000002c0: b088 bd3d c418 cabc 2308 cc3d 4382 993d
000002d0: 4216 353e f747 b33d 00cb a63b c249 6f3d
000002e0: eab6 a0bd 9464 b7bd f995 203e 6581 653d
000002f0: c6de 633d 5c62 203e 0e19 be3d 9d97 38bd
00000300: 410f 353e 1682 213e 0e5c 503d 2aa9 843d
00000310: 2c21 99bc 0291 b03d a451 783e d760 e83d
00000320: 50b2 0e3d 3193 893c fb1c 09bd f2e3 3b3d
00000330: e33c a5bd 028f eebd 1957 c7bd b1c8 27bd
00000340: 83e4 93bd 9e2a 023d 6779 cbbb 1c3a 0bbe
00000350: 15e3 59bd ad41 9c3c a3d4 6a3c 5717 f43d
00000360: 2043 a1bd 9a89 c73d 90f3 95bc a029 e2bd
00000370: 85c3 e0bc 9770 99bc b8f5 1c3e 7b2f 87bc
00000380: 7b94 38bc eea0 0b3d d25d a4bc 3a3f 7a3d
00000390: 3ccd 1b3d 0ca8 47be a078 c4ba 3b3e 0a3c
000003a0: b0e9 c2bd 9e35 d83d 495f 92bd 81b8 19bc
000003b0: 6622 2bbd de7a 4f3c 8e75 b03c 0241 50bd
000003c0: df70 28bd 2adc ae3d 3de6 36bd 36d8 533c
000003d0: f3c4 683d 930f 2a3d 4ec6 a4bc a5e2 723d
000003e0: 8721 a53d 5a5d 7bbd f617 083d 57cd a53d
000003f0: a334 4f3e 83bb b23d 835b 033e c447 0d3e

decoder.conv2.bias f4 [16]
0.033993714 0.01065011 0.043263808 0.019121123 0.09236838 0.07855054 0.13063566 -0.047805306
-0.124200106 -0.09427519 -0.022673957 0.06359974 0.06882663 0.033950027 -0.051027384 -0.07253978
00000000: fe3c 0b3d cd7d 2e3c 6435 313d e7a3 9c3c
00000010: a22b bd3d 1bdf a03d 5bc5 053e 7fcf 43bd
00000020: a05c febd 5a13 c1bd bcbe b9bc 9540 823d
00000030: faf4 8c3d 2f0f 0b3d 1702 51bd bc8f 94bd

decoder.conv3.weight f4 [16, 8, 3, 3]
0.0687329 0.17369443 -0.082690634 0.107446454 0.15501843 -0.23991498 0.2939453 0.5121731
-0.0309905 -0.03418337 0.0181215 0.037217245 -0.040275138 -0.051217113 0.091493964 -0.022710385
-0.078639396 -0.06594074 -0.023911718 -0.062107228 -0.0092051 -0.04968589 0.3429844 0.39146265
-0.039596096 0.22801365 0.2424838 0.09787037 0.009411778 -0.0244745 0.02336795 -0.0045874906
0.048744135 -0.09433799 0.11015408 0.063792564 0.13352786 0.04087857 0.026609086 0.09213058
0.17539737 0.07145504 0.22299151 0.18812183 -0.03143927 -0.10492245 0.14501731 0.12356762
0.12157803 0.2091776 0.050647866 0.31195316 0.13355234 -0.24056436 -0.019256389 0.108631484
-0.05046652 0.15653782 0.23494726 -0.1107204 0.044355866 0.10539145 -0.04589408 0.00984616
0.011119001 -0.012462199 -0.01539451 -0.032875206 -0.0016855113 0.0043775677 -0.0039254255 -0.014573015
-0.11008606 -0.03995971 0.06422869 0.07406742 -0.038288865 -0.058518898 0.028320996 -0.008417696
-0.08951766 0.102315046 -0.102020726 -0.08188495 -0.09192751 0.010416678 0.046259973 -0.04554678
0.011055776 -0.008859649 0.03959364 0.04293054 -0.041117467 0.09262545 0.08744615 0.12467905
0.05622069 0.037524395 -0.08559667 -0.1389278 -0.04781278 -0.11647549 -0.061629184 0.060991555
-0.058515076 0.010201742 0.080953084 -0.02497014 -0.020277217 -0.032384228 -0.041717302 -0.07108626
-0.0739639 -0.12256289 -0.11231632 0.020249097 -0.12219153 0.073221594 0.05917113 -0.003146039
-0.048766203 -0.022265296 -0.11009516 -0.009708341 0.013655618 -0.053694695 0.05642281 0.11364793
0.051921695 -0.1103347 0.004470693 -0.027961401 0.011510156 -0.06853384 0.019977853 -0.027167697
0.06546323 0.091306224 -0.023505777 0.023523118 0.032346494 -0.028313598 0.08404906 0.092859365
-0.03959585 0.15451051 0.15696278 0.094250716 0.10988399 0.22560652 0.14467536 0.115870535
0.06374992 0.014299821 0.16901478 -0.062436245 -0.08420428 0.06657078 -0.05442491 -0.024878949
0.06330231 0.013206383 -0.0013909393 0.17770174 0.047299247 0.10849416 0.14187364 0.23422621
-0.10643619 0.25128412 0.153695 0.1333426 -0.09621917 -0.036937125 0.009728921 -0.06892113
0.024583831 0.05939528 0.03623086 -0.09273754 0.08843526 0.029847339 0.12868589 0.043075215
0.025643619 0.14950055 -0.033544265 0.05699425 0.15146814 0.00967235 0.10538393 0.19538422
-0.032141235 0.12569019 0.26477295 0.10771442 0.13325569 0.06607104 0.08244568 0.055233687
0.38391894 0.07536516 -0.031618576 -0.03309968 0.03685219 0.19349083 -0.007096117 -0.011029158
-0.078858905 -0.08387032 -0.07205868 0.056929093 0.10709582 0.003082568 -0.07096618 -0.05352097
0.13985099 0.20654891 0.19289011 -0.08732858 -0.0314791 0.027764864 0.12563312 0.012630574
0.20885772 -0.039746165 -0.034394473 0.08616216 0.018535055 -0.16683644 0.07746864 0.14638406
0.09973118 -0.031605907 0.16988851 -0.013653053 0.19744313 0.08425523 0.19722268 0.33287206
-0.0493356 -0.11617647 0.08850456 0.078843154 -0.08152196 0.009035272 0.05722041 0.0132578
0.25957027 0.020247672 0.018735461 0.1652983 0.05501835 0.058710013 -0.00045379665 0.02365921
00000000: d6c3 8c3d f4dc 313e b559 a9bd e30c dc3d
00000010: 27bd 1e3e 46ac 75be 0080 963e c71d 033f
00000020: cadf fdbc dd03 0cbd 8a73 943c 1c71 183d
00000030: 8bf7 24bd 09c9 51bd 3061 bb3d 210b babc
00000040: b10d a1bd f00b 87bd 82e2 c3bc 2664 7ebd
00000050: fdd0 16bc 6f83 4bbd a79b af3e cb6d c83e
00000060: 842f 22bd 697c 693e ac4d 783e 4370 c83d
00000070: dc33 1a3c bf7e c8bc 256e bf3c a952 96bb
00000080: eea7 473d 4734 c1bd 7698 e13d ada5 823d
00000090: 87bb 083e 4a70 273d 4cfb d93c f5ae bc3d
000000a0: 5e9b 333e 0557 923d e357 643e 02a3 403e
000000b0: 77c6 00bd 95e1 d6bd 6b7f 143e 0511 fd3d
000000c0: e7fd f83d a732 563e 2374 4f3d 53b8 9f3e
000000d0: f2c1 083e 8156 76be 93bf 9dbc 2f7a de3d
000000e0: fbb5 4ebd 734b 203e 0496 703e 61c1 e2bd
000000f0: 7fae 353d 79d7 d73d 6efb 3bbd ca51 213c
00000100: 782c 363c 402e 4cbc 4139 7cbc 27a8 06bd
00000110: 60ec dcba b371 8f3b dba0 80bb a8c3 6ebc
00000120: cd74 e1bd cbac 23bd 558a 833d a9b0 973d
00000130: c9d4 1cbd 83b1 6fbd 6f01 e83c 60ea 09bc
00000140: 0955 b7bd 8d8a d13d 3ef0 d0bd 4cb3 a7bd
00000150: 7e44 bcbd b7aa 2a3c 197b 3d3d 438f 3abd
00000160: 4923 353c 1028 11bc f12c 223d efd7 2f3d
00000170: ca6a 28bd 69b2 bd3d f816 b33d bb57 ff3d
00000180: ab47 663d 2eb3 193d 4f4d afbd 1743 0ebe
00000190: 55d7 43bd b48a eebd e26e 7cbd 48d2 793d
000001a0: 81ad 6fbd 3525 273c bbca a53d 2e8e ccbc
000001b0: 681c a6bc 53a5 04bd c3df 2abd ac95 91bd
000001c0: 637a 97bd 4102 fbbd 1906 e6bd 6fe1 a53c
000001d0: 8e3f fabd 34f5 953d 6d5d 723d c72d 4ebb
000001e0: 12bf 47bd b665 b6bc 9279 e1bd bc0f 1fbc
000001f0: d0bb 5f3c f8ee 5bbd 9b1b 673d 3fc0 e83d
00000200: d8ab 543d 29f7 e1bd e47e 923b 4f0f e5bc
00000210: 1895 3c3c 785b 8cbd 98a8 a33c ca8e debc
00000220: 9611 863d c2fe ba3d 308f c0bc 8eb3 c03c
00000230: c27d 043d ebf1 e7bc ea21 ac3d 0d2d be3d
00000240: 422f 22bd 0138 1e3e daba 203e 8506 c13d
00000250: db0a e13d 6505 673e c725 143e 884d ed3d
00000260: 518f 823d cc49 6a3c 3612 2d3e 26bd 7fbd
00000270: 4b73 acbd 4356 883d a8ec 5ebd f0ce cbbc
00000280: a4a4 813d 965f 583c 2e50 b6ba 72f7 353e
00000290: dbbc 413d 3032 de3d 5347 113e ffd8 6f3e
000002a0: 38fb d9bd 50a8 803e 3962 1d3e f68a 083e
000002b0: 8e0e c5bd 624b 17bd 0d66 1f3c 8526 8dbd
000002c0: 0864 c93c 7748 733d cf66 143d 2eed bdbd
000002d0: 8c1d b53d 6882 f43c 3cc6 033e a36f 303d
000002e0: 9112 d23c ac16 193e b665 09bd cd72 693d
000002f0: 771a 1b3e c778 1e3c 88d3 d73d cd12 483e
00000300: 87a6 03bd eeb4 003e 5290 873e 6199 dc3d
00000310: 2e74 083e 4150 873d 48d9 a83d b83c 623d
00000320: 0691 c43e 0d59 9a3d 7b82 01bd 8893 07bd
00000330: 52f2 163d 7622 463e 8b86 e8bb a4b3 34bc
00000340: c780 a1bd 34c4 abbd 8093 93bd 7b2e 693d
00000350: 0e55 db3d e904 4a3b b756 91bd ce38 5bbd
00000360: 1935 0f3e 8f81 533e fc84 453e 54d9 b2bd
00000370: 3bf0 00bd 2473 e33c f8a5 003e 78f0 4e3c
00000380: ccde 553e e0cc 22bd 38e1 0cbd c975 b03d
00000390: d4d6 973c 2cd7 2abe e1a7 9e3d b4e5 153e
000003a0: dc3f cc3d 3275 01bd 41f7 2d3e 0eb1 5fbc
000003b0: 882e 4a3e 028e ac3d bef4 493e 356e aa3e
000003c0: 2014 4abd eeed edbd e141 b53d 8578 a13d
000003d0: fcf4 a6bd ad08 143c f35f 6a3d 3e37 593c
000003e0: 65e6 843e 72de a53c 1c7b 993c f543 293e
000003f0: ec5a 613d e979 703d 8eeb edb9 f6d0 c13c

decoder.conv3.bias f4 [8]
0.16576539 -0.033469316 0.05799424 -0.15199994 0.14470373 -0.024674455 0.08688358 0.14055978
00000000: 67be 293e 1f17 09bd 5e8b 6d3d dfa5 1bbe
00000010: 372d 143e 1522 cabc 05f0 b13d e7ee 0f3e

decoder.conv4.weight f4 [8, 1, 3, 3]
0.030881071 0.17845213 -0.105082296 -0.10135786 -0.29367435 -0.08052777 -0.093887985 -0.55016667
-0.4809256 0.13007043 0.3402187 0.30706438 -0.050589602 -0.060855255 0.028230108 -0.08517311
0.08568523 0.021221261 -0.5713597 -0.5661781 0.0019893222 -0.63627243 -0.34353253 0.00021342584
-0.39512134 0.0033542025 0.00047452672 -0.05299215 0.24478044 0.40029073 0.37643158 -0.20251605
0.28145546 0.23568907 0.28952414 0.016581723 -0.3885067 -0.21248242 -0.32283676 0.19968073
-0.37436146 -0.08166042 -0.054911967 0.12439435 -0.29673707 0.16803145 -0.05954663 -0.1679345
0.09436695 -0.08620115 -0.32380146 -0.26818067 -0.043649133 -0.4151001 -0.47044092 -0.3529328
-0.3453955 0.021806981 -0.11766509 -0.12830839 0.09117918 -0.24170065 0.18911664 0.07742434
-0.1671975 -0.05760408 0.10025252 -0.23254259 0.18322526 0.13788946 -0.26410988 0.044406958
00000000: 4dfa fc3c 28bc 363e 6335 d7bd b694 cfbd
00000010: 7c5c 96be beeb a4bd 5848 c0bd b9d7 0cbf
00000020: e13b f6be 2f31 053e 2531 ae3e 8b37 9d3e
00000030: 0b37 4fbd 5c43 79bd d442 e73c 3d6f aebd
00000040: bd7b af3d 36d8 ad3c a144 12bf 0cf1 10bf
00000050: 4a5f 023b c0e2 22bf 7fe3 afbe 10cb 5f39
00000060: 584d cabe 2ed2 5b3b e6c9 f839 4c0e 59bd
00000070: b9a7 7a3e e8f2 cc3e a4bb c03e 5e60 4fbe
00000080: ee1a 903e 7a58 713e 823c 943e 65d6 873c
00000090: 5aea c6be fe94 59be dc4a a5be 1b79 4c3e
000000a0: 4eac bfbe 943d a7bd 5feb 60bd 77c2 fe3d
000000b0: eced 97be 7010 2c3e 2be7 73bd 06f7 2bbe
000000c0: 7643 c13d 3b8a b0bd 4ec9 a5be fa4e 89be
000000d0: 6fc9 32bd 0088 d4be a2dd f0be 9cb3 b4be
000000e0: aed7 b0be 8ea4 b23c 65fa f0bd 4663 03be
000000f0: 26bc ba3d 6080 77be cba7 413e a790 9e3d
00000100: d235 2bbe 41f2 6bbd 3151 cd3d a51f 6ebe
00000110: 679f 3b3e e532 0d3e 6939 87be 12e4 353d
